app/src/main/assets/intent_model.tflite (tflite, 20580 bytes, 6 tensors)

arith.constant f4 [7, 32]
000000 f6 a4 f7 3d 4e 02 06 3e be 49 c5 3e 9d 93 02 be
       0.12092011 0.13086817 0.38532823 -0.12751622
000010 74 80 a4 3e b1 83 3d bd 44 90 b4 be d1 16 0a bf
       0.32129252 -0.04626817 -0.35266316 -0.53941065
000020 29 84 fa 3e 16 6d 90 3d 15 45 28 be 98 78 11 3c
       0.48928955 0.070520565 -0.16432603 0.008878849
000030 44 26 c6 3e c3 52 b7 be 8b 5e de 3e 01 00 99 3e
       0.3870107 -0.3580533 0.43431506 0.29882815
000040 81 4b d8 be c8 ac 9b 3e 08 6b 21 3e 2a 41 4f be
       -0.42245105 0.3040526 0.15763485 -0.20239702
000050 13 e0 c7 be 74 4c 02 bd 43 6b 02 bf db b8 c8 3d
       -0.39038143 -0.031811193 -0.5094492 0.098008834
000060 ea 21 c1 be 59 76 da be 24 98 77 be 70 f1 42 bd
       -0.37721187 -0.42668417 -0.24179131 -0.047593534
000070 ee fa 0d 3e 90 9c bb be 7b f5 95 3e 09 31 a1 be
       0.13865253 -0.36642885 0.2928885 -0.31482723
000080 06 75 0c bf 7d fe 9c 3e 6b 25 46 bd 9b 60 98 3e
       -0.54866064 0.3066291 -0.04837553 0.29761204
000090 d7 90 b1 be 4f 39 eb 3b c1 78 91 3e 13 72 89 3e
       -0.34680817 0.0071784626 0.2841244 0.26844844
0000a0 ae e1 04 bf 22 8a c2 3e f3 b2 f9 3e d6 88 ff be
       -0.5190686 0.37996012 0.4876934 -0.49909085
0000b0 ac 3f 09 bf e4 7e 85 3e 3f a4 1b be cd a8 5e 3e
       -0.5361278 0.26073372 -0.15199374 0.2174408
0000c0 40 39 08 3f 51 39 d0 be 76 b6 e4 be 99 45 b4 3d
       0.53212357 -0.4066873 -0.44670457 0.08802337
0000d0 c3 f3 99 3e a4 69 8b bd 1e d1 90 3e 96 7b 42 3e
       0.30068788 -0.06807259 0.28284544 0.18992457
0000e0 22 b7 38 3e d5 d0 94 bc ea 0a 08 3e 9a 67 84 3e
       0.1803861 -0.018165985 0.13285413 0.25860292
0000f0 f2 54 8c 3e 86 60 09 bf 8f 84 b5 be b6 76 47 be
       0.27408558 -0.5366291 -0.35452697 -0.19478878
000100 dd 81 c9 bd af 82 18 3e 28 72 54 be 0e 70 6f bc
       -0.098392226 0.14893602 -0.20746672 -0.014614118
000110 a5 b1 d9 3e 6c b0 cf 3e a9 a6 3c 3e 84 1f 08 bf
       0.42518345 0.40564287 0.18422951 -0.5317309
000120 a3 20 c2 be 35 72 29 3e 3f a7 c4 be 8e f8 e7 bc
       -0.37915525 0.16547473 -0.3840885 -0.028316762
000130 34 58 b1 be 5d bb 0c bd 28 0f e9 be 29 52 f8 be
       -0.34637606 -0.03435837 -0.45519376 -0.48500183
000140 c4 eb 6f be d6 4d ae be 94 05 98 3e c0 47 f8 be
       -0.23429781 -0.3404376 0.29691756 -0.4849224
000150 78 51 0d bf a8 ce ea 3c 0f 17 ac 3e dc f0 59 be
       -0.55202436 0.028662995 0.33611342 -0.21283287
000160 b2 74 81 be 2b c3 0b be 6e 86 02 bf d3 aa 68 bd
       -0.25284344 -0.1364867 -0.50986373 -0.056803536
000170 cb 37 e5 be b0 b3 c5 3e d4 89 f5 be e5 02 ef 3e
       -0.4476913 0.38613653 -0.47956717 0.46681896
000180 ef 41 06 bf 39 a7 ab 3e 83 f4 a7 be 2d 62 e9 3e
       -0.52444357 0.33526018 -0.32803735 0.45582715
000190 3f 23 15 bf ff dc 77 be a2 4f b9 3e 96 4f c5 bd
       -0.58256906 -0.24205397 0.36193568 -0.096343204
0001a0 9c e2 ed 3e 8b dd de 3e c9 b4 09 bf 7a 79 7c bc
       0.46461952 0.435284 -0.5379148 -0.015409822
0001b0 f0 ca 70 be 2e 39 60 be 02 f4 20 3e 59 af c3 be
       -0.23514915 -0.21896812 0.15718082 -0.38219717
0001c0 07 14 91 3e 9f de fb 3d 4c bc 03 bf e4 15 d5 3e
       0.28335592 0.12298321 -0.51459193 0.41618264
0001d0 7d 62 15 bf 43 9c aa 3c d6 5c 39 3e b4 58 63 be
       -0.58353406 0.020826465 0.1810182 -0.22201806
0001e0 11 ad 01 bf df 3e 21 3e da 2e 43 3d 16 6b 9b bd
       -0.50654703 0.1574664 0.047652103 -0.075887844
0001f0 78 ee cb 3e 9a de 21 3e 73 2a e6 3e 67 b8 a8 be
       0.39830375 0.15807572 0.4495426 -0.32953188
000200 d9 8e f3 3e 6a 51 1c bf 43 66 4d 3e 1d 4e ff be
       0.47569922 -0.6106173 0.20058541 -0.49864283
000210 f4 5d e0 be f1 a6 1a be 66 51 b4 3e 34 c6 0a 3f
       -0.4382168 -0.15102746 0.35218352 0.54208684
000220 3c 31 a0 bd f6 4a 93 be d2 c1 90 be 8e b0 a6 bd
       -0.07821891 -0.28768128 -0.28272873 -0.08139144
000230 1b bf bf 3d 2f 19 71 be 14 a1 4c bc 45 f9 f0 3e
       0.09362622 -0.23544763 -0.012489576 0.47065178
000240 3f de 89 bd ce 00 39 3e 02 6e 00 bf 22 66 fb be
       -0.06731843 0.18066713 -0.5016786 -0.4910136
000250 c2 d0 70 be 17 f5 ef 3d 31 cf 23 bf 84 f5 b5 3e
       -0.23517135 0.11716669 -0.63988024 0.35538876
000260 eb 07 8f 3d 07 82 bd 3d 09 2c e3 3e 14 32 d7 3e
       0.06983932 0.092533164 0.44369534 0.42030394
000270 85 b9 7e 3d 09 ec 24 be e0 a3 1d bf be a9 ac 3e
       0.062188644 -0.16105665 -0.6157818 0.33723253
000280 88 7e 10 bf a5 f5 06 3f 8b 3c 13 bf d6 a0 88 bd
       -0.5644307 0.52718574 -0.57514256 -0.06671302
000290 37 55 3e 3e e5 b1 91 3e 00 21 13 be f7 a1 9a 3e
       0.18587194 0.28456035 -0.14368057 0.30201694
0002a0 53 3c bd be f1 a0 12 bf ad 77 38 be 26 71 eb be
       -0.36960086 -0.5727683 -0.18014403 -0.45984763
0002b0 7d 3a 83 3e d2 0e e8 3e 2c d1 a8 3e ad 31 42 be
       0.2563056 0.45323807 0.32972085 -0.18964262
0002c0 c5 3d 57 be ea d4 df be 75 94 ca 3e e9 cb 1c bf
       -0.21019657 -0.43717128 0.3956639 -0.6124864
0002d0 7e 58 f7 3e 43 62 f2 3c 6e 94 e7 bd 7b bd 4b 3d
       0.48309702 0.02958787 -0.113076076 0.04974125
0002e0 15 ab 61 bd b9 8e 07 bf 81 28 27 3e c4 ca 1b bf
       -0.055094797 -0.5295215 0.16324045 -0.6085627
0002f0 50 26 88 3e 09 f2 8b 3e 33 61 4a 3e f1 22 a0 be
       0.2659173 0.27333096 0.19763641 -0.31276658
000300 96 70 61 bd f7 8f de bd 04 be 17 3e b8 17 8e bd
       -0.05503901 -0.10867303 0.14818579 -0.06938118
000310 c5 a1 36 bd 1a d3 08 bf fe 99 4d be 7c 31 36 3c
       -0.04458787 -0.53447115 -0.20078275 0.011120196
000320 bf 49 7c 3e b1 8a 3f be 4a 42 01 3e 76 74 a3 be
       0.24637507 -0.1870525 0.12622944 -0.3192479
000330 2f 06 c3 be ea 04 68 3e 38 26 1b 3d bc 4d 89 be
       -0.38090655 0.22658125 0.037878245 -0.2681712
000340 1c b6 05 bf 2b b6 01 bf 92 bb 8f be e7 32 e5 bd
       -0.52231 -0.5066859 -0.28072792 -0.111913495
000350 ba b2 54 3e 8e 93 68 3e 03 74 9b be d9 46 9e be
       0.20771304 0.22712538 -0.30361947 -0.30913427
000360 29 4a 0a bf 8f 4a 07 be c2 e3 fb be 73 93 37 3e
       -0.5401941 -0.13212036 -0.49197203 0.17927341
000370 05 5a b2 be 51 f4 bb 3d c2 c9 c2 3b 13 05 ed be
       -0.34834304 0.09177459 0.0059444616 -0.46292934

arith.constant1 f4 [32, 64]
000000 3d 2b a9 3c 93 ee bb bd 3a 04 05 be 42 ec 02 3e
       0.0206505 -0.09176364 -0.12989894 0.12785438
000010 11 ab d0 bc 0e 26 2c 3e 40 26 86 3e 2b 6d 56 bd
       -0.025472196 0.16811392 0.26201057 -0.052350204
000020 6b a2 23 3e 01 dc 28 be b0 c0 72 3e c4 e8 36 3d
       0.15979926 -0.16490175 0.23706317 0.044655576
000030 0f 20 8a bd c9 ee 08 3e 38 ef 05 3d e5 ef 8a be
       -0.06744396 0.1337234 0.03269884 -0.2713615
000040 9d 26 5e 3e 22 52 af be b8 9b 15 be a3 40 64 be
       0.21694417 -0.3424235 -0.14610183 -0.22290282
000050 43 8c 7c 3b 3f 2b 45 3d 97 25 17 bc e9 80 0e 3d
       0.003853575 0.048136946 -0.009225271 0.034790907
000060 16 ee 08 3e 9b 9e 8f bd af 21 8e 3e a2 2b 6c 3e
       0.13372073 -0.070126735 0.27760074 0.2306352
000070 0a 15 f7 bc e5 6b c7 3e 8f b9 77 3e 1b a2 be 3d
       -0.0301614 0.38949504 0.24191879 0.09308263
000080 9c 0e b7 3d 6b eb 8d 3d 59 1a 5e 3d 75 51 2a 3e
       0.089383334 0.06929668 0.054224346 0.16632636
000090 68 98 ef 3d 51 66 65 3e 71 9f e0 3d ff f7 6b 3e
       0.11698991 0.22402312 0.10967911 0.23043822
0000a0 53 a1 6f be 4c 42 6d 3d 1a bb bf 3d 61 d0 29 be
       -0.23401384 0.057924554 0.09361859 -0.16583396
0000b0 34 f4 f6 3c fc 23 61 bd 60 75 1e 3e 83 fa 28 3c
       0.030145742 -0.054965958 0.15474463 0.010313633
0000c0 28 0a 33 be b1 fd d4 3e f7 e9 95 3e 9e a6 60 bd
       -0.17484343 0.415998 0.29280064 -0.0548464
0000d0 d5 58 35 be 58 e5 54 be 64 ed 4e 3e 94 a4 74 be
       -0.17709668 -0.20790613 0.20207745 -0.23890907
0000e0 a8 b7 6a be 0a 80 a6 3d d5 4f 84 be 6a 13 29 be
       -0.22921622 0.0812989 -0.25842157 -0.16511312
0000f0 25 d0 53 be b9 c8 4c bd 06 6f 18 3e 75 92 cb bd
       -0.2068487 -0.04999611 0.14886102 -0.09940044
000100 12 48 42 be 07 b2 b8 3e 4f 1e b0 3e 36 06 74 3e
       -0.18972805 0.36073324 0.34398124 0.23830494
000110 3d d3 aa 3e 13 3f 80 3e 79 72 84 be 5d 45 3d bd
       0.33364287 0.25048122 -0.25868586 -0.046208728
000120 f5 04 e3 3d ae d6 8f 3c 77 f9 06 be 12 13 1a bd
       0.1108493 0.017558422 -0.13181101 -0.037615843
000130 6f c9 1f be 44 14 76 bd be 89 73 3d a0 a4 98 3d
       -0.15604185 -0.06007792 0.059457533 0.07453275
000140 5d 0f 8f bd b1 45 27 3e 17 47 8c 3e 47 de bb 3e
       -0.06985352 0.16335179 0.27397987 0.36693022
000150 0d 50 7e 3e 7e c0 b0 3d 9e f4 80 3e 3b c5 20 3e
       0.24835224 0.08630465 0.25186628 0.15700237
000160 82 bc c0 3e 77 04 13 3c 4d 5e 59 bd a0 b9 d5 bd
       0.3764382 0.0089732325 -0.053068448 -0.10435796
000170 c4 20 71 be 29 ff 9a bd e1 cd 97 3e b6 d8 33 3d
       -0.23547655 -0.07568199 0.2964926 0.043907844
000180 43 80 c9 bd 7d 3b 35 be 37 e1 c6 3d 94 ec cb bc
       -0.09838917 -0.17698474 0.09710925 -0.024893083
000190 2c 82 8d 3e ed d8 94 3e 29 89 46 bd 7f 0b 4b 3e
       0.27638376 0.2907175 -0.04847065 0.19828604
0001a0 81 cd a8 3e 5f 47 e3 bd 7c d4 09 be 48 1f 6a 3e
       0.32969287 -0.11097597 -0.13459963 0.22863495
0001b0 d7 5d 14 3c 90 d4 6f 3e a6 e1 26 3e 90 48 11 be
       0.009055576 0.2342093 0.16297016 -0.14187837
0001c0 20 8f dd 3d 7e c6 17 bd 1f 0b 87 be 55 20 9a be
       0.108183146 -0.03705453 -0.26375672 -0.30102792
0001d0 94 84 2b 3e 4f fc 08 3e a5 92 98 bc 43 1c d9 3e
       0.16749793 0.13377498 -0.018624613 0.42404374
0001e0 e1 ae 5e 3e 32 c2 8c 3e 68 28 bb 3e 04 1b 98 3e
       0.21746399 0.2749191 0.36554265 0.2970811
0001f0 0a b5 ee 3d 40 7e 5d be b3 37 98 3d db 33 87 bd
       0.11655624 -0.21630192 0.07432499 -0.066016875
000200 b1 db 9f bd f4 42 f3 3d bf b6 f7 bc a5 35 c6 bd
       -0.07805575 0.11878005 -0.030238507 -0.09678201
000210 b2 c9 84 3b 1b d1 a6 bd 0f d9 f6 bb 59 6e 52 be
       0.0040523643 -0.081453525 -0.0075331996 -0.20549907
000220 26 e1 99 3e f3 60 08 be d2 d8 c9 3e 39 de d7 3d
       0.30054587 -0.13318233 0.39423233 0.105404325
000230 9e 83 53 be a9 55 ed 3d 0d 39 af bd 3d be a2 3c
       -0.20655677 0.11588604 -0.085558034 0.019866103
000240 31 61 1b 3e 36 76 5f 3e 4e c8 73 bd 23 db ea 3d
       0.15173794 0.21822438 -0.059517197 0.11467578
000250 1e aa ea 3d d4 9a 9c 3e 17 19 f5 3d 09 66 2f be
       0.114582285 0.30586874 0.11967676 -0.17128767
000260 48 09 4e 3e 7c d5 93 3d ce 7f 32 3e c5 6c 80 3e
       0.20120728 0.07218453 0.17431566 0.25082985
000270 2d 2b 26 bb a7 9b 1a 3d 3e a5 7a 3e 61 2d 7f 3e
       -0.0025355325 0.037746098 0.24477097 0.24919654
000280 d2 1b 31 3e 9e 47 91 3e 58 25 6c 3e d0 d2 34 be
       0.17295769 0.28374952 0.2306112 -0.17658544
000290 91 1d 3f be 93 9e be 3b 7d a3 97 bd 5b 24 d2 bd
       -0.18663622 0.0058172434 -0.0740423 -0.102608405
0002a0 6a bb 46 bc 35 69 b8 3e 59 db 39 3e 38 6e 1a 3e
       -0.012129644 0.36017767 0.1815008 0.15081108
0002b0 a3 d6 3e be 36 e5 b4 3e 5c 82 95 3c c0 7c 9b 3e
       -0.18636565 0.35331124 0.018250637 0.30368614
0002c0 74 f0 e8 bd a4 84 a3 3d c8 be 83 bd cd 12 69 be
       -0.11373988 0.079842836 -0.06432873 -0.22761078
0002d0 f9 61 8e 3e 1a 3a a1 3b 5f ae 0d bd 8a f6 cf be
       0.27809122 0.0049202563 -0.03459012 -0.40617782
0002e0 0a bd 35 3c ce d4 8c 3e e4 6b 49 bd d6 a1 95 be
       0.011092434 0.27506107 -0.04917516 -0.29225034
0002f0 73 af 1f be 4a 95 f6 bc ac a2 74 3c 87 87 0a bd
       -0.15594272 -0.030100483 0.014931362 -0.033820655
000300 2c f6 01 be 3c 00 77 be d3 95 09 3e bc 9e 72 bd
       -0.12691563 -0.24121183 0.1343606 -0.059233412
000310 38 b3 b4 3e 87 2a 12 be 77 7a bd 3d 36 32 5f 3e
       0.35292983 -0.14274035 0.09251874 0.21796498
000320 bd f5 15 3e 51 19 95 3d 88 ca 45 be 74 ee f0 bd
       0.14644523 0.07280219 -0.19315541 -0.11764231
000330 0d 2d 45 be a3 44 1f 3d 10 e8 42 3d 2a d4 3b bc
       -0.19255467 0.038883816 0.047584593 -0.011464158
000340 06 e2 2b be c4 21 8a 3e c4 2c 8e 3e 21 96 59 be
       -0.1678544 0.26978886 0.27768528 -0.21248676
000350 d5 27 9f be fa 27 b1 3e c7 ee 5e 3d 58 c6 6c 3e
       -0.31085077 0.34600812 0.054426935 0.23122537
000360 84 72 a5 be 30 c3 c6 bd d7 87 0c 3e f6 9f cc bd
       -0.3231393 -0.09705198 0.13723694 -0.09991448
000370 35 6f 76 3e b5 87 e0 3c ef 43 36 be e1 cb c2 3e
       0.2406586 0.02740846 -0.17799352 0.38046172
000380 33 e1 2b bc 50 3f 64 be ce 4a 1c 3d 39 99 df 3c
       -0.010490703 -0.22289777 0.038157277 0.027294742
000390 d5 02 7b bd c6 ca df bd 4c 67 8c be b8 50 09 be
       -0.061281998 -0.10927348 -0.2742256 -0.13409698
0003a0 40 e4 1c 3e 2f 48 49 3e 66 54 c0 bd 6e 22 c6 be
       0.15321445 0.19656442 -0.09391098 -0.38698143
0003b0 ac 44 2b 3e 90 1b b5 bd 91 10 82 bd e5 32 87 be
       0.16725415 -0.08843148 -0.06350816 -0.26406017
0003c0 bd 07 36 bd 7b 1e 55 3d 7f fd e8 3d cc 8f 88 be
       -0.044440974 0.05203102 0.113764755 -0.26672208
0003d0 af f2 4e 3d d7 dd 5e 3e 83 6d bc be fd a4 a3 3e
       0.05052441 0.21764313 -0.368023 0.31961814
0003e0 0f ee b4 3d cb f4 0a 3d e5 a8 59 bd e4 9a 29 3c
       0.088344686 0.03392486 -0.053139586 0.01035187
0003f0 cb ad 4e 3d df ef 68 be 74 3e a7 3e c4 0d a8 3d
       0.05045871 -0.22747754 0.32664835 0.082057506

arith.constant2 f4 [7]
000000 d7 b5 16 3d 12 3d f2 3c ad 26 42 bd cd 24 c5 bc
       0.03679451 0.029570136 -0.047400165 -0.0240654
000010 0c 32 77 3b 1b c4 1e 3d a4 78 d6 bd
       0.003771904 0.03876124 -0.10472229

arith.constant3 f4 [32]
000000 a3 b5 85 3d 83 5d a0 3d 4e 11 74 3d 8f f6 9c 3d
       0.06528785 0.07830336 0.059586816 0.07664215
000010 3b b2 ae 3d 37 8a ab 3d c7 1e 8f bc 20 de e9 3d
       0.085300885 0.08375972 -0.01747073 0.1141932
000020 09 4a 7c 3d b6 a1 61 3d bd 05 30 3d 22 c2 93 3d
       0.061594043 0.05508586 0.042974222 0.07214762
000030 f4 2c a2 3d a3 ed 83 3d 07 d1 bb 3d 63 88 81 3d
       0.079187304 0.0644181 0.09170728 0.06324842
000040 2b ac 92 3d d9 56 94 3d 37 d0 59 3d 76 cb 6c 3d
       0.07161745 0.072431274 0.053177085 0.057811223
000050 3f ff 90 3d 4c e4 4b bd ad 4e c6 3d 72 a3 97 3d
       0.07079934 -0.049778268 0.09682975 0.074042216
000060 1b 5d ae 3d 1a a4 62 3d 1f 6a bf 3d cb df 90 3d
       0.08513852 0.05533228 0.09346413 0.07073935
000070 d9 d6 dd 3d ec bb b2 3c 84 3f 9f 3d dc 26 61 3d
       0.108319946 0.021818124 0.077757865 0.0549687

sequential_7_1/dense_19_1/BiasAdd/ReadVariableOp f4 [64]
000000 43 26 67 bc e5 a0 9d 3d 3f 87 21 3e ed de ae 3d
       -0.014108243 0.07696704 0.15774249 0.085386135
000010 d4 3c 12 3e e5 aa 20 3e 6e c3 f5 3d 1b 70 88 3d
       0.14281017 0.15690191 0.12000166 0.066620074
000020 f0 07 21 3e 32 54 53 3d d5 c0 ec 3d bf c4 1d 3e
       0.15725684 0.051593967 0.11560217 0.15407084
000030 ad 1f 9a 3d a4 c8 e2 3d ed 2a 8f 3d d2 ef 77 3d
       0.07525573 0.110734254 0.06990609 0.060531445
000040 c7 d6 e8 3d b7 e2 28 3e b2 af 57 3e 1b 4c 16 3e
       0.113690905 0.16492735 0.21063116 0.1467747
000050 d2 4f b6 3d bd 34 0e 3e 34 56 c0 3d 72 d8 c6 3b
       0.08901943 0.13887306 0.09391442 0.0060682828
000060 a0 d9 19 3e b8 cf 03 3d a8 89 bb 3d 95 0e 19 3d
       0.15024424 0.032180518 0.09157115 0.037367422
000070 1c f7 1b 3e 8b 60 2e 3e c1 e0 fb 3d e6 8f 12 3e
       0.15230983 0.17029016 0.12298728 0.14312705
000080 7e 24 3a 3d f9 f9 10 3e 3c ab 1c 3e 8b 9f 31 3e
       0.045444958 0.14157857 0.15299696 0.17346017
000090 0b f3 b1 3d e5 2e 0f 3e 78 a4 84 3d 86 fa cf 3d
       0.08688935 0.13982733 0.064766824 0.101552054
0000a0 92 e5 14 3e 50 fc c8 3d 8f 77 2e 3e d1 53 a0 3d
       0.14540699 0.0981375 0.17037795 0.07828487
0000b0 41 77 d9 3d 97 cf 09 3e d1 d2 11 3e e5 98 87 3c
       0.10618449 0.13458095 0.14240576 0.016552398
0000c0 6e a4 11 3b 44 8c 38 3e 47 bd 36 bd af af 03 3e
       0.0022223252 0.18022257 -0.044614103 0.12859987
0000d0 82 5b eb 3d ab 56 19 3d ec 89 a6 3d 13 c7 53 3e
       0.11492063 0.03743617 0.08131775 0.2068141
0000e0 de 2b 09 3e 69 4b 08 3e b0 3a 21 3e f2 59 0b 3e
       0.1339564 0.13310017 0.15745044 0.1360853
0000f0 d5 15 c1 3d 6a 5f 8b 3d c3 0b 14 3e cf 7a 8a 3d
       0.09427992 0.06805308 0.14457612 0.06761705

sequential_7_1/dense_19_1/MatMul f4 [64, 35]
000000 36 5e 5f be 15 4f a9 3d fa 7a 62 3e c0 78 e6 3b
       -0.21813282 0.08267037 0.22117224 0.0070334375
000010 99 9d 01 be 51 a0 0e 3e ca e4 16 3e e3 97 ea 3d
       -0.12657775 0.13928343 0.14735714 0.11454751
000020 68 bb 8c 3c b3 cb 04 be e2 2a 89 3d e5 78 ea 3d
       0.017179206 -0.1296833 0.06697632 0.1144884
000030 49 95 56 be bc ef 49 3e ce 16 3b be 09 0a 37 3e
       -0.20955385 0.19720358 -0.18270418 0.17874922
000040 c1 b9 32 be c6 f4 11 3e 24 81 27 3e b8 10 0d be
       -0.17453672 0.1425353 0.16357857 -0.13775909
000050 9b 29 3c 3e 97 67 71 be f1 67 91 3e 80 2e 48 3d
       0.18375246 -0.23574673 0.28399613 0.04887247
000060 72 cb 57 be 30 03 02 bc cc 49 1b be 10 10 76 bc
       -0.21073702 -0.00793533 -0.1516487 -0.015018478
000070 a8 00 d9 bc 00 f8 c5 ba 01 03 d7 3d 7c 7b d6 bd
       -0.02648957 -0.0015103817 0.1049862 -0.104727715
000080 82 65 38 be 6b c5 33 3c 76 e4 ad ba 1a ea ef bd
       -0.18007472 0.010972361 -0.0013266939 -0.11714573
000090 a6 06 81 bd 1a 93 68 be 46 c7 2f 3d d0 6e ac bc
       -0.06300096 -0.22712365 0.04291465 -0.021048933
0000a0 a7 9e 11 be 61 1d 0f 3e c6 a4 a6 bd d8 2d 72 be
       -0.14220677 0.13976051 -0.08136897 -0.236503
0000b0 42 d4 46 3e a0 a5 1c be a8 03 13 be af 0c 37 3e
       0.19416907 -0.15297556 -0.14356863 0.17875932
0000c0 e2 b2 41 be ef f3 85 bd 8c 3c 22 bd af 08 97 3e
       -0.18915895 -0.06540667 -0.039608523 0.29498813
0000d0 ad 1b af bd e4 28 1f 3e 42 f0 67 be 84 49 83 3e
       -0.085502006 0.15542942 -0.22650245 0.25642025
0000e0 6c 0b ba bd 82 33 8a 3e fd 91 8e 3e 45 61 67 be
       -0.0908421 0.26992422 0.27845755 -0.22595699
0000f0 15 89 e9 3d ec 53 0d 3c da ea 4f 3e 72 5c 1a be
       0.114030994 0.008625966 0.20304433 -0.15074328
000100 8e db ce 3e 7d 70 65 be 5b d3 a5 bd 3f 98 3d 3e
       0.40401882 -0.22406192 -0.080969535 0.18515109
000110 10 f5 1f 3e 2f a1 9c bd c6 1c ae 3e 89 70 c0 3a
       0.15620828 -0.07647931 0.34006327 0.0014681976
000120 40 95 56 be 96 35 ae 3c 4a 8b 24 be 8f b4 72 be
       -0.20955372 0.021265786 -0.1606876 -0.2370169
000130 de 5d a6 bd e9 31 3a 3d c0 94 6e 3e 1f da d7 bd
       -0.081233725 0.045457754 0.23298931 -0.1053965
000140 fb 58 3c 3e c6 19 90 3e 2c 6c e6 bd f6 4a 22 bd
       0.18393318 0.28144664 -0.11251101 -0.03962227
000150 bd fe 71 3e ce 29 ae 3e 8a 1f 00 3e 97 da e3 3d
       0.23632331 0.3401627 0.12512031 0.11125677
000160 83 e0 d8 3d a3 2d 98 3d 91 d7 73 3e 8e 36 d9 3d
       0.10589697 0.074305795 0.23812701 0.106061086
000170 d9 72 22 3e 43 cc 6c 3e 15 2f c5 3e 65 c0 69 3e
       0.15864123 0.23124795 0.38512483 0.22827299
000180 c4 dc 74 3d b8 ad 5b 3c 19 54 a8 bc 16 7c 21 be
       0.05978085 0.013408117 -0.020547913 -0.15769991
000190 0b c5 a7 3e 3b 2f 22 be 1b e8 61 be 9a f6 3a 3e
       0.3276752 -0.1583833 -0.22061197 0.18258134
0001a0 f2 24 5d be d4 5c ac 3d dc 3b ef 3b 02 27 6b 3e
       -0.21596125 0.08416143 0.007300837 0.22964099
0001b0 92 2b f2 3d 1d 25 31 3e 29 f3 b1 bc 9f 26 eb bd
       0.11824717 0.17299314 -0.021722393 -0.11481976
0001c0 f4 3e 15 be a8 16 65 3e fe f1 17 be f6 08 f6 3c
       -0.14574796 0.22371924 -0.14838406 0.03003357
0001d0 b4 1d a9 3e fc dc 4c 3d 3e 73 4d bc 4f 28 13 bc
       0.33030474 0.050015435 -0.012539683 -0.008981778
0001e0 ce b8 be bd 95 c8 d6 3d 8e b2 ae 3e 23 0f 4d 3e
       -0.093125924 0.10487477 0.341206 0.20025305
0001f0 55 a8 a0 3d d0 df 47 be e4 49 c4 bd 24 db 4d 3d
       0.07844607 -0.19518971 -0.09584406 0.050257817
000200 11 a4 63 3e 76 b6 07 bd 54 8b 0f be 71 07 c9 3b
       0.22230555 -0.033132993 -0.14017993 0.0061349203
000210 38 0c 5e be 73 34 07 3d 08 ff 13 3e 3b 8b 06 be
       -0.21684349 0.033009004 0.14452755 -0.1313905
000220 44 75 17 be 8c 12 91 3c 07 a3 0b bd c9 27 11 3d
       -0.14790827 0.01770904 -0.034091022 0.035438333
000230 3e 69 1b bc 82 cd ad 3e f6 0c 30 bd 48 bb 2f 3c
       -0.009485541 0.33945853 -0.04298111 0.010725804
000240 3b e4 0a 3e d4 e2 5d be a4 83 13 3e bc 5c 92 3e
       0.13563626 -0.2166856 0.14405686 0.28586376
000250 ac 37 93 3e 80 0c 27 bd 90 ca 4f bd 26 6f c8 bd
       0.28753412 -0.040783405 -0.050730288 -0.09786825
000260 4b d2 76 be 25 06 8e bc ea 31 c1 3d 44 a4 26 3e
       -0.24103658 -0.017336914 0.094333485 0.162736
000270 6e 9d 73 be 3a 68 94 bd ec 40 a0 3d c3 5f 3b be
       -0.23790523 -0.07246442 0.07824883 -0.18298249
000280 20 2a 9c bb ec 18 d1 bd 54 6e b0 bd c8 8f 6b be
       -0.004765764 -0.102098316 -0.086147934 -0.23004067
000290 d6 d1 c8 3c 60 ba 5f 3c 99 b8 91 bd 04 ae 8b 3d
       0.02451412 0.013655275 -0.07115287 0.068203
0002a0 93 85 c5 3e d3 39 3e be 1e 4c 0d bd ad ed 11 be
       0.38578472 -0.18576746 -0.03449642 -0.14250822
0002b0 b1 a8 1d bd c0 c8 13 be 10 5a ad 3e a7 e8 36 bd
       -0.038490955 -0.14432049 0.33857775 -0.04465547
0002c0 34 e3 0f 3c fc b8 2c 3e 0a 76 c2 3d 40 a9 e0 3d
       0.008782197 0.16867441 0.094951704 0.10969782
0002d0 9f 1d b5 bc 91 b0 d2 3d bf bd ea bd d4 f2 78 bd
       -0.022108851 0.102875836 -0.114619724 -0.060778454
0002e0 36 50 de 3d a4 20 b5 3c e4 bb 74 be ce da 01 be
       0.10855143 0.02211029 -0.238998 -0.12681124
0002f0 fd 18 c6 3d 25 39 e5 bd 64 2a b2 3e 23 b1 91 3d
       0.09672735 -0.1119254 0.34797966 0.07113864
000300 01 9e 46 3c 49 e5 ef bd e7 e8 73 3c 3d 14 7c be
       0.012122632 -0.117136545 0.014887071 -0.24617095
000310 ee b7 9c 3d ab d0 94 3d af 18 07 bd 02 a9 c2 3d
       0.07652269 0.07266363 -0.032982524 0.09504892
000320 d4 91 89 3e c2 fb 0b be e8 ac 62 3e f0 71 a9 bd
       0.2686907 -0.13670257 0.22136271 -0.08273685
000330 5b ac 25 be ce 85 c8 3d 10 aa 20 be f7 2a 89 3e
       -0.1617903 0.09791146 -0.15689874 0.26790592
000340 5d 0c 19 3e 20 54 d4 bc aa e2 e7 3d 84 38 05 3e
       0.14946122 -0.02591902 0.113225296 0.1300984
000350 19 7b 3b 3e e2 e9 78 3e cc 4c e8 3d a1 dc 65 be
       0.18308677 0.24307969 0.11342773 -0.22447444
000360 c4 57 bb 3c 25 d9 98 3e 76 58 9d bd 40 42 8f bc
       0.022868998 0.29853168 -0.07682888 -0.017487645
000370 43 06 bd 3d 82 39 39 be d9 14 8e be 6d f0 01 3d
       0.0922971 -0.18088344 -0.2775028 0.03172343
000380 2c 82 b7 bd 0a 63 7b be ef d0 5e be 93 a1 8c 3e
       -0.08960375 -0.24549499 -0.2175939 0.2746702
000390 5e 9e c5 3d fe 17 d4 bc c8 0d d0 bd dc 09 8c 3e
       0.09649347 -0.025890347 -0.101588786 0.27351272
0003a0 be 8e a6 3d d5 69 21 3e 7e 52 b0 bd f0 e8 e1 bd
       0.08132695 0.15763028 -0.08609484 -0.110307574
0003b0 39 61 c0 3d 1e 48 9b 3e fe 9f e3 3d 7b 4f 47 bd
       0.09393544 0.3032846 0.111145005 -0.048659783
0003c0 0a ce 66 be 52 2c 17 3e 60 5a 70 be b0 98 19 3c
       -0.22539535 0.14763 -0.23471975 0.009374782
0003d0 dd dc 57 be 4c d2 51 bd 74 4c 99 3e 88 fe e6 bd
       -0.21080346 -0.051225945 0.29941142 -0.11279017
0003e0 1c 57 59 be ca ec 65 3b 39 07 a6 3e 45 da a9 3e
       -0.21224636 0.0035083764 0.32427385 0.3317434
0003f0 e8 07 06 3d fa a9 2d 3d 2c 6b 07 bd c0 33 19 be
       0.032722384 0.04239843 -0.03306119 -0.14961147
