NiagaNow-Chatbotz/lang_model.tflite (tflite, 20052 bytes, 6 tensors)

arith.constant f4 [3, 32]
00000000: a140 74bd 01ec bdbe 9fcd 0bbf 3d00 953e
00000010: b4ae e93e 62d1 18bf 91b4 603d a4c2 9b3e
00000020: f711 a93d 4cd6 25be 8785 ad3c 88e0 febe
00000030: 63d9 ccbe 0311 f93e 6b41 c43d d256 24be
00000040: 4e0a da3e 1fd6 83bc 0323 9a3e 3aa2 80be
00000050: 5aea d0be b789 c1be 1418 e8bd acef 873e
00000060: a3fd c1bc 2eba 413d fd5b 16bf cd58 0ebe
00000070: dc0a ba3e 27aa 8e3d 034c 04be 197c 4a3e
00000080: 3772 003f 045a f6bd 2fab e93c d7bd babe
00000090: faeb d0bd 7a34 b73e ce78 063f 50d3 94be
000000a0: 4029 dcbe a750 4cbe fa20 e03e 8366 37be
000000b0: 2324 5b3e 44b1 5ebe 581c a1be b620 103d
000000c0: c2b5 f1be 82a9 0d3d ff43 a9be 25c5 563e
000000d0: 7f30 ff3e acb0 17be 85c0 8f3d 18ab f8bd
000000e0: b819 9d3e c209 a13e c364 e2be ec50 a8bd
000000f0: 43a1 d83d 641e b23d 0b30 e93d 99c7 8abe
00000100: ad5c 07bf e2b7 013f 4990 3e3e 2371 043d
00000110: 3050 06be 8251 6d3e 3bc3 bbbe 9675 c7be
00000120: bc58 e53e b917 ab3e bfd5 ae3d 72d8 e0bd
00000130: 276e 03bf 54be cdbe 6fc3 acbe c758 9c3e
00000140: a07d 84bd 8c9a d33e 1bfe 373d 0e2b 6a3b
00000150: 57d1 f5be 13aa b83e cd8f 033f 1fe1 c8bd
00000160: 94fa d23e fb7a a4be 1bc2 fd3e 087d fa3e
00000170: a39d 09be 8d9c dbbd a207 50be 7830 203e
-0.059631947 -0.3709412 -0.5461063 0.29101744 0.456411 -0.5969449 0.0548597 0.30421937
0.0825538 -0.16195029 0.021181835 -0.4978068 -0.40009603 0.4864579 0.0958279 -0.16048744
0.42585987 -0.016093312 0.30104837 -0.2512377 -0.40803796 -0.3780038 -0.113327175 0.26550043
-0.023680514 0.047296695 -0.5873411 -0.13901062 0.3633641 0.06966048 -0.12919621 0.19773902
0.5017428 -0.12028888 0.02852401 -0.3647296 -0.10201259 0.35782224 0.52528083 -0.2906747
-0.4300022 -0.19952641 0.4377516 -0.17910199 0.21400504 -0.21747309 -0.31466937 0.035187446
-0.47208983 0.034585483 -0.3305969 0.20973642 0.49841687 -0.14813489 0.07019142 -0.121420085
0.30683684 0.31452757 -0.442175 -0.082185596 0.10577633 0.08697203 0.113861166 -0.27105406
-0.52875787 0.5067121 0.18609728 0.032334458 -0.13116527 0.23175624 -0.36672387 -0.38956898
0.4479426 0.33416536 0.085368626 -0.10978784 -0.51339954 -0.4018427 -0.33742854 0.30536482
-0.064692736 0.41328847 0.04492007 0.003573123 -0.48011276 0.36067256 0.513913 -0.098085634
0.412068 -0.32125077 0.49562153 0.48923516 -0.1343904 -0.10723219 -0.20315412 0.1564349

arith.constant1 f4 [32, 64]
00000000: ddb8 033d 6e08 13be 02e9 08be 6bab bfbc
00000010: fbf0 873e 4d25 653e 593d 093d bf42 a13d
00000020: 5514 3e3e 6e67 5bbe aac0 0b3c ac22 a83d
00000030: ba5c 133e 98a6 173e 4754 12be 913f ae3d
00000040: ccc2 35be 157f 603e 596e 8fbe f0dd 5e3e
00000050: faa1 8b3e 0a0c a3bc 0de5 1c3e 00ed 4f3e
00000060: f2d7 0cbe 00b4 89be 0b0e 43be f04e 0d3c
00000070: 3a15 95be e48f 8a3e dda4 42bd 3dcd 2bbe
00000080: 5070 123e 09d0 23be 00bc 9a3d fe6c 553c
00000090: 7475 b93d cba0 4c3e ca56 843d fa5d e6bd
000000a0: 5998 9f3e 577a a3bd 51c3 37be 9d6d 32bd
000000b0: 7802 3b3e 21d1 213e cf26 923e 20b3 10be
000000c0: 908d adbc 9354 773e 708c 0dbe 10e4 5c3e
000000d0: 72b1 5bbd 25f2 32be 3aa5 633d ff27 8a3c
000000e0: 4139 003c a662 a7bd 3930 62be ed10 6b3e
000000f0: d70a d33d 7ad5 0e3e edb4 08be 52b4 953e
00000100: 7a98 a93e a60d 5cbe d3f5 663e 46f7 113e
00000110: fffe 79be 5026 2c3e f913 753e 7a2e eebd
00000120: d595 00be 2ac0 45be b49b 063e b940 1b3d
00000130: 7170 a33e 834b 6dbe 83de 133e 8e8b cebd
00000140: 3acc 373d e036 383d 63d1 2e3d 5382 a7bd
00000150: c916 84bd 0723 e83d 8828 013e 27c3 a23e
00000160: ef0b 7abd 071b 053e 5389 5dbe 44c0 793e
00000170: 3137 6abe bd38 b6bc c202 223d bf37 6c3e
00000180: e7fd 48be 5870 b43c c124 273e bd4e c2bd
00000190: e35a c63c 7aa7 c9bc 73de 61be 2fdb 8c3e
000001a0: 5f7c ccbd 7030 27be 2468 d43d 1215 e33d
000001b0: a6db d03b d3c6 3ebe 4e7a 0b3d 748e b83d
000001c0: 1888 8f3e ce53 10be a550 393e 505c 0a3e
000001d0: 066e f23d 997f 0b3e 9ea1 06bc 8266 76be
000001e0: f9a0 98bd 12bf 7cbe 768a 853e 2b87 5cbe
000001f0: 9b5b 2cbe 007e cc3c 2ae9 7b3e bf57 293e
00000200: 4285 a73e 264b 33bb 0fec 823e 6fcd 89bd
00000210: bfb8 443c db83 363e 4b46 a2bd 6282 253e
00000220: 81cf 273e 8472 163e 149b 143e 3e4e b6bd
00000230: eca7 6a3e 5343 ed3c f0d6 30be 1961 a13d
00000240: 3007 463e 715a 6fbe 91b5 64be cba7 c7bc
00000250: 5e8d 413e 3765 9d3e 6b57 3bbe 277e 9d3e
00000260: 42cf afbd c919 bcbd 66bd 23be f792 9a3e
00000270: 8cc8 793d 6a8b 8c3d 43d5 20be da8c b03e
00000280: e0ff dc3d 5cb1 67bd 48fe bcbd 030c 153e
00000290: 2034 41be 43d1 3abe 46b4 9a3e 3026 a73e
000002a0: f49b 1bbe efe7 76bd 7bb1 18be a327 d03d
000002b0: 8323 e33d e7aa 90be 2aab 1d3e 0280 963e
000002c0: c67b b93d e569 bcbd 4957 303e 976c d03d
000002d0: 73f2 1a3e 5dc5 bd3e 1eba 643e fddb 103e
000002e0: 9f4e 6cbd ac77 71be bea0 0ebe 5f5c cb3d
000002f0: bba6 1d3d 8958 9d3e 3a68 a5bc cd20 783e
00000300: af95 c03b acb5 b13e 18dc f0bc 8065 983e
00000310: 205e 293d dc5e c2bd a5fb b93e 8c15 723c
00000320: 85d4 59be c2d7 903e 7d6b 003d e653 9f3e
00000330: b91e bb3c 8748 38be 1cc1 223e d634 8bbe
00000340: c0ce 9d3e 1d53 24be 13e4 ba3e 4c43 56be
00000350: 1fc3 003e 49e6 83bd 40c5 a5bd 95d3 11be
00000360: d0ee e63d 1844 aebd 7ace 7a3e baab f3bd
00000370: 528a 593e 6241 a03e 74ff 9f3d c9c3 4c3d
00000380: ebf2 00be 3846 c23c c488 9a3d 9bd0 663e
00000390: 47c5 603d 44e3 e13d 07a9 233e 24f0 9dbc
000003a0: 362f 0e3e f4b0 0d3e 0448 983e eec7 963e
000003b0: 83bf d03d 7557 813e ceb3 5cbe 3d45 e5bd
000003c0: 2df5 093e 9f68 94bc b33b 343d 04af 393e
000003d0: ae68 653e cc89 89bd 97d5 07bd ecbd 8d3e
000003e0: f4a5 113e a715 89bd e0c5 093e edf0 7bbe
000003f0: c9d2 0fbe 2a60 093e e283 173e 9b87 f9bd
0.03215872 -0.14358684 -0.13370135 -0.023397168 0.2655104 0.2237751 0.03350577 0.07874059
0.18562444 -0.21426174 0.008529821 0.08209738 0.14390841 0.14809644 -0.14289962 0.08508218
-0.1775009 0.21923478 -0.28013876 0.2176435 0.27272016 -0.019903202 0.15321751 0.20305252
-0.13754252 -0.26895142 -0.19048326 0.008624777 -0.29117757 0.27062905 -0.047520507 -0.16777511
0.14300656 -0.15997328 0.075553894 0.013026474 0.090556055 0.19983213 0.06461866 -0.11248393
0.3117092 -0.07982319 -0.17945601 -0.043561567 0.1826266 0.15802433 0.28545234 -0.14130831
-0.021185666 0.24153356 -0.13823104 0.21571374 -0.053636022 -0.17475183 0.055577494 0.016864775
0.00782615 -0.081731126 -0.22088708 0.22955675 0.10304802 0.13948622 -0.13350268 0.29239136
0.33124143 -0.21489581 0.22554712 0.14254484 -0.2441368 0.1681149 0.239334 -0.116299585
-0.12557156 -0.19311586 0.13145334 0.03790352 0.31921723 -0.23173337 0.1444035 -0.10085212
0.0448725 0.044974208 0.042680155 -0.08179154 -0.064496584 0.11334806 0.12613118 0.31789514
-0.061046537 0.12998591 -0.21634416 0.2438975 -0.22872616 -0.022243852 0.03955341 0.2306814
-0.19628106 0.022026226 0.16322614 -0.094876744 0.02421326 -0.024615992 -0.22057514 0.27510974
-0.099846594 -0.16327071 0.10371426 0.11088003 0.0063738404 -0.18630533 0.034052186 0.09011546
0.2803352 -0.14094469 0.1809717 0.13511777 0.118373916 0.13622893 -0.0082172435 -0.24062541
-0.07452578 -0.24682263 0.260822 -0.21535937 -0.1683182 0.024962425 0.24600664 0.16537379
0.32718855 -0.0027358024 0.25570723 -0.067286365 0.0120069375 0.17823736 -0.079235636 0.16163018
0.1638775 0.14692122 0.14512283 -0.08901642 0.2291562 0.028962767 -0.17269492 0.07879848
0.1933868 -0.23374344 -0.22334887 -0.024372002 0.18901584 0.30741283 -0.18295066 0.3076031
-0.08584453 -0.09184606 -0.15990219 0.3019025 0.060982272 0.068625286 -0.15706353 0.3448246
0.10790992 -0.056565627 -0.09228188 0.14555363 -0.1886754 -0.1824389 0.30215663 0.32646322
-0.1519621 -0.060279783 -0.14911453 0.1016381 0.11090758 -0.28255388 0.15397325 0.29394537
0.09056811 -0.09199885 0.17220797 0.10176962 0.1513155 0.3706464 0.22336623 0.14146419
-0.057692166 -0.23580807 -0.13928506 0.09929728 0.038489085 0.3073161 -0.0201913 0.24231263
0.0058772187 0.34708917 -0.029401824 0.29764938 0.04134953 -0.09490749 0.36324802 0.014775645
-0.21272476 0.2828961 0.03135251 0.31118697 0.022841798 -0.17996417 0.15893978 -0.27188748
0.308218 -0.1604733 0.36502132 -0.20924109 0.12574433 -0.06440408 -0.08094263 -0.14240868
0.112760186 -0.085090816 0.24492827 -0.118979886 0.21244171 0.31299883 0.07812396 0.049991403
-0.12592666 0.023715124 0.07545617 0.22540514 0.05487564 0.110296756 0.15982448 -0.019279547
0.13885197 0.13837034 0.29742444 0.2944941 0.10192778 0.25262037 -0.21552965 -0.11194847
0.13472433 -0.018116293 0.044002246 0.1813317 0.22403213 -0.06715736 -0.03316268 0.2768396
0.14223462 -0.06693583 0.1345439 -0.24603625 -0.14045252 0.1341559 0.14796403 -0.12184068

arith.constant2 f4 [3]
00000000: fbca 373d e05d d6bc 2c47 9cbc
0.04487131 -0.02616781 -0.019076906

arith.constant3 f4 [32]
00000000: 78c4 563c 8e1d 8d3d 8eca 6c3d bcfd 963d
00000010: 57cc 6c3c a22a a13d 4391 573d 7800 713d
00000020: 9cf1 d53d 94a2 bd3d d8ed aebb 54f6 e93d
00000030: 498f 4c3d 3a3d 1c3d 45f9 d03d 2c1f 833d
00000040: 6935 893d 2977 983d 5326 803d c06b aa3b
00000050: a1b3 213d 0ca1 3abc 532e 403d 4993 883d
00000060: cf41 cb3d 99cb 873c f3e5 b83d 6c77 a83d
00000070: 6c3e 2e3d a8dc 3e3a 26cc 1b3c 3250 313d
0.013108365 0.06890403 0.05781036 0.07372615 0.014453015 0.0786946 0.052628767 0.058838338
0.10446474 0.09259525 -0.005338412 0.114239365 0.049941335 0.038144328 0.102037944 0.0640243
0.0669964 0.07444603 0.0625731 0.005200833 0.039477948 -0.011390936 0.04691918 0.066687174
0.09924661 0.016576575 0.09028234 0.08225903 0.04254 0.0007280805 0.009509122 0.04328937

sequential_6_1/dense_16_1/BiasAdd/ReadVariableOp f4 [64]
00000000: 1a06 1e3e 0c10 993d 4b9f 9c3d 12d5 b63d
00000010: 8e31 b73c 5066 093e 0a70 3a3e 0b03 9abc
00000020: 9d45 79bc 7a6a 7e3d 9be8 f03d 1765 c13d
00000030: 4ade ae3d 6cff 843d bf12 913d baa4 233d
00000040: 95ae ab3d 4c9e 793c 46f9 cf3d 3daf 203e
00000050: b2a6 ed3d 89b2 5c3d 3d6f 8a3d 83d1 323e
00000060: 3da2 003d 7a7d 8c3d ceb1 0f3e 57d7 9a3d
00000070: 537a b13d a5dc ee3c aa0a 81bd c77d 1fbc
00000080: dfcf 32bd 8e01 223c 7e46 2bbd 0f6e 0f3e
00000090: edb7 75bc 56dd bd3c 2731 abbb 5407 4e3d
000000a0: 72c7 4f3d da74 a83d 20f1 8a3d eb22 103e
000000b0: 3c7d 843d 8793 8b3d 2436 4e3d 3e13 d43d
000000c0: 9ebe 35bc 818e 953d 198e 0d3e d666 a33d
000000d0: 0e0a 853d bc75 103e 3df9 c23d 707a bc3d
000000e0: a30b 1d3e 865c ecbb f208 0c3e a453 a73d
000000f0: b643 8abd 4225 9f3d 7097 d93d 6fdd 933d
0.15432015 0.07473764 0.0764757 0.08927359 0.022362497 0.13417935 0.18206802 -0.01880028
-0.015214351 0.062113263 0.11763116 0.094431095 0.08538492 0.0649403 0.07083654 0.039952017
0.08382908 0.015235495 0.10154967 0.15691848 0.1160406 0.053881202 0.06759498 0.17462735
0.031404722 0.0685987 0.14032671 0.07560604 0.086659096 0.029157946 -0.06300862 -0.0097345775
-0.043655273 0.009888066 -0.041815273 0.14006828 -0.014997465 0.02317683 -0.0052243653 0.050299957
0.050727315 0.08225413 0.06784272 0.1407582 0.06469199 0.06815248 0.0503446 0.10355233
-0.01109281 0.07302571 0.13823737 0.07978599 0.064960584 0.14107412 0.09520195 0.092030406
0.1533647 -0.007213178 0.13675287 0.0817025 -0.06751196 0.07770778 0.106245875 0.072199695

sequential_6_1/dense_16_1/MatMul f4 [64, 35]
00000000: 3980 0d3d e82a a73e cd32 503e e84f 0b3d
00000010: 555a 6abc d4ae 393e e6d1 0fbe d206 493e
00000020: 9386 7f3e 364a e5bd f7f5 2dbd e915 31bc
00000030: 02c8 78be 50a6 ccbc bfa2 3abe ea9b dd3d
00000040: f492 59bd 94f1 c0bd ab7e f83d e680 9c3e
00000050: aa37 003e 7a6b 1f3d 70da 47be 9b1d b53d
00000060: b07b 41be a9e1 3bbe ddff 75bd 371a 37bd
00000070: 21b1 933d d5c3 a63e 98ef 843e d3cc 233e
00000080: c128 173e 4c74 8a3e 38d4 d03d 12d0 1e3e
00000090: c5a2 e5bd c494 043e ab40 18bd b5a6 193e
000000a0: 61e0 833e 620d 0d3e 82bc 163e eb2f f13c
000000b0: cd29 ad3e fef9 8fbd 1dbe 3dbe 623e 1cbd
000000c0: 4635 6d3e 5eb6 a93d 4bae 3c3e 206d b43e
000000d0: b2cb 51be f1bd a5bd b565 1dbe d277 ff3d
000000e0: 6a56 febd 90e8 a63d a8f6 403e 37d5 0b3e
000000f0: a5d0 813e d54e 56be dee2 edbd 8e4c 70be
00000100: 4cf7 f73d e763 24be a618 05be ad09 99bd
00000110: de38 c6bd 4921 99bd 30b3 87bd 1524 5a3e
00000120: 5233 dabd 76d7 393e 0868 1c3e 3bb2 c93d
00000130: 4fdf 913d f315 653e bcf4 c4bd 709b bebc
00000140: cb8d ecbd 4ebf 37be 124a bf3d 0053 6fbb
00000150: be63 cb3d 47b0 a1bd de35 44be a9a9 5d3d
00000160: 001b ad3a a166 053e 585f b4bd 4781 55be
00000170: a7bd 0e3e 9278 15be a24c 0cbe 7e7e b13d
00000180: f330 0b3e 3f7d 8b3e 38a3 21be 5153 23be
00000190: 0d6a 31be 9206 3c3e 86ce 333e 9df0 603e
000001a0: 031f 7f3e 8ae1 0d3e 249a f5bd 30eb d63c
000001b0: 9a4d 3a3d f15e 5e3e 46b4 3bbe d842 41bd
000001c0: 354f a83c f177 cfbd 6b5e fe3c b47b 28be
000001d0: 14f2 0ebe b040 bc3d 12f0 2fbe 7ec6 853e
000001e0: 354d 8c3c b2b1 a73e 2b3c 9d3e f2c9 67be
000001f0: 1061 183d 2012 ac3e ee27 3cbe 28fb 9cbc
00000200: aa86 3abe 16b7 fd3c 17c1 9e3c ad8b e43d
00000210: ce93 fabd 6cce 07be f787 96bc 2eb4 3a3e
00000220: 58d7 063e 4d84 bd3d 823e 5abd 1018 ca3d
00000230: 606e d1bd 2da2 a43e 508a 6abd 022c 823e
00000240: 4edb 24be 28a3 bd3d 3ab5 78be d4f0 113e
00000250: e1b4 08be 0aa6 ddbd f0ba ef3d 6329 373e
00000260: 6488 323e 0fdb 40be 57ee 823e b49a b5bd
00000270: 4ad1 3bbe 0075 bcbd a06a 75bc 091f 3e3c
00000280: 40cc 7b3c e807 843e 6c99 77be e9e3 c6bc
00000290: 00cf 3a3d 4345 dfbd 062b 5dbe 9615 603e
000002a0: 3e89 bd3d 87e5 71be 44f1 70bd 6853 19bd
000002b0: fa69 0cbe 54b9 b6bc 08b2 b6bc 21ba 323e
000002c0: 390a 1a3e a821 2b3e 5c8c 453e 24f1 e73c
000002d0: 3c32 e2bd b6d4 14be 8104 d1bd 3f92 18be
000002e0: b197 363e eee5 893e 66cf 053e 40eb 16be
000002f0: 5502 343e 6abe 44be b283 533e 8323 ecbd
00000300: 04ed 80bd 28fc b9bc 3a8f 803e 8247 963d
00000310: 4d04 993e 0045 1b3d ddd0 4fbe d678 e23c
00000320: 9f2f d03d 1a70 703c 86ce 943d 5285 6b3e
00000330: e403 2bbe 7f8f 623e 68fc 7e3e cdf0 813e
00000340: 226c 0a3e 4670 67be ba21 963d 0659 83bd
00000350: 5003 13be c01c ae3d 5643 61bc fd81 59be
00000360: 70a4 3bbe acae 18be 6949 9f3d 3ab5 36be
00000370: 542b 41be 42d8 7bbe b77b 0d3e 1ee1 eebd
00000380: 2846 73be 98a8 37be eca6 4ebe 4cf9 19be
00000390: bc6f bebd 7d9a 693c ee06 383e e816 4bbe
000003a0: f0c6 ab3c 2a93 b8bc 409b 82be 0444 0cbe
000003b0: 87f9 02bd 7084 d7bd 4823 893e 60f6 943d
000003c0: 54dc 8d3e 4873 73bd e970 d23d 1099 9f3e
000003d0: 45b9 8c3d 8448 67bd a4ef ebbd 0c7f 24be
000003e0: 8060 c6bd f81c de3c 7ed0 74be ea0e 95bd
000003f0: 2802 fbbd dc59 853e 9ce7 0d3e 0fc0 fa3c
0.03454611 0.32649922 0.20331879 0.03401175 -0.014303763 0.18133098 -0.14044914 0.19631508
0.2495368 -0.11195795 -0.0424709 -0.010808446 -0.24295047 -0.024981648 -0.18226145 0.10820754
-0.05311866 -0.09421077 0.12133535 0.30567092 0.12521234 0.038920857 -0.19516921 0.088435374
-0.1889484 -0.18347801 -0.060058463 -0.044702735 0.07211519 0.32571283 0.25964046 0.15996103
0.1476164 0.27041852 0.101967275 0.1550906 -0.112126864 0.12947375 -0.037171047 0.15005
0.25757125 0.13774636 0.14720348 0.029441794 0.33820954 -0.07030104 -0.18529554 -0.03814543
0.23164853 0.08286737 0.18425862 0.35239506 -0.2048786 -0.08092869 -0.1537083 0.12474026
-0.12418826 0.081498265 0.18844092 0.13655554 0.25354496 -0.2092851 -0.11615537 -0.23466703
0.12107715 -0.16053735 -0.12997684 -0.07472549 -0.09678815 -0.07477052 -0.06625974 0.21302827
-0.1065432 0.18148598 0.1527406 0.09848448 0.07122671 0.22371654 -0.09616992 -0.023267478
-0.11550482 -0.1794407 0.093403 -0.0036517978 0.09931134 -0.0789495 -0.19161174 0.05411688
0.0013206899 0.13027431 -0.08807248 -0.20850097 0.13939534 -0.14596775 -0.13701108 0.086667046
0.13592891 0.27243993 -0.1578492 -0.15949751 -0.17325611 0.18361881 0.17559251 0.21966787
0.24914174 0.13855568 -0.119922906 0.026235193 0.045484163 0.21715905 -0.18330488 -0.047182888
0.020545581 -0.10130299 0.031050881 -0.16453439 -0.13959533 0.09192026 -0.17181423 0.26128
0.017126659 0.32752758 0.30709967 -0.2263563 0.03720194 0.33607578 -0.18374607 -0.01916273
-0.18215433 0.030971091 0.019379182 0.111594535 -0.12235223 -0.13262337 -0.01837538 0.18232796
0.13168085 0.0925375 -0.05328227 0.09867871 -0.102261305 0.3215498 -0.05726081 0.254242
-0.16099283 0.09259635 -0.24287882 0.14252025 -0.1335025 -0.10822685 0.117055774 0.17886882
0.17434841 -0.18833564 0.25572464 -0.08867398 -0.18341556 -0.092020035 -0.014979035 0.011604079
0.015368521 0.25787282 -0.2417962 -0.024278598 0.045607567 -0.109018825 -0.21598443 0.21883234
0.092546925 -0.23622714 -0.05882384 -0.037433058 -0.13712302 -0.022305168 -0.022301689 0.17453815
0.15042962 0.16712058 0.19291824 0.028313227 -0.11044738 -0.14534268 -0.10205937 -0.14899538
0.17831303 0.26933235 0.13067397 -0.14738178 0.17579015 -0.19213262 0.20655707 -0.11530211
-0.06295207 -0.022703245 0.25109273 0.07337858 0.29886094 0.0379076 -0.20294519 0.02764551
0.10165333 0.014675165 0.07265954 0.23000076 -0.16700703 0.22125052 0.24900973 0.2537903
0.13517812 -0.22601423 0.073306516 -0.06413464 -0.14356732 0.085015774 -0.013748964 -0.21240993
-0.18324447 -0.14910382 0.07777674 -0.1784257 -0.18864185 -0.24594215 0.13816725 -0.116640314
-0.23757231 -0.17935407 -0.20180863 -0.15036505 -0.092986554 0.014258024 0.17971393 -0.19832957
0.020968884 -0.02253111 -0.2550907 -0.13697821 -0.03197625 -0.10523307 0.2678473 0.07273555
0.2770716 -0.059436113 0.10275442 0.31171465 0.06871275 -0.05646564 -0.11520317 -0.1606409
-0.09686375 0.027113423 -0.23907658 -0.07278235 -0.12256271 0.2604512 0.13857883 0.030609159
